…
/usr/local/lib/python2.7/dist-packages/theano/sandbox/cuda/__init__.py:600: UserWarning: Your cuDNN version is more recent than the one Theano officially supports. If you see any problems, try updating Theano or downgrading cuDNN to version 5.
  warnings.warn(warn)
____________________________________________________________________________________________________
Layer (type)                     Output Shape          Param #     Connected to                     
====================================================================================================
convolution2d_1 (Convolution2D)  (None, 16, 16, 256)   2560        convolution2d_input_1[0][0]      
____________________________________________________________________________________________________
maxpooling2d_1 (MaxPooling2D)    (None, 8, 8, 256)     0           convolution2d_1[0][0]            
____________________________________________________________________________________________________
convolution2d_2 (Convolution2D)  (None, 8, 8, 512)     1180160     maxpooling2d_1[0][0]             
____________________________________________________________________________________________________
maxpooling2d_2 (MaxPooling2D)    (None, 4, 4, 512)     0           convolution2d_2[0][0]            
____________________________________________________________________________________________________
convolution2d_3 (Convolution2D)  (None, 4, 4, 1024)    4719616     maxpooling2d_2[0][0]             
____________________________________________________________________________________________________
convolution2d_4 (Convolution2D)  (None, 4, 4, 1024)    9438208     convolution2d_3[0][0]            
____________________________________________________________________________________________________
convolution2d_5 (Convolution2D)  (None, 4, 4, 1024)    9438208     convolution2d_4[0][0]            
____________________________________________________________________________________________________
convolution2d_6 (Convolution2D)  (None, 4, 4, 1024)    9438208     convolution2d_5[0][0]            
____________________________________________________________________________________________________
convolution2d_7 (Convolution2D)  (None, 4, 4, 1024)    9438208     convolution2d_6[0][0]            
____________________________________________________________________________________________________
convolution2d_8 (Convolution2D)  (None, 4, 4, 1024)    9438208     convolution2d_7[0][0]            
____________________________________________________________________________________________________
convolution2d_9 (Convolution2D)  (None, 4, 4, 1024)    9438208     convolution2d_8[0][0]            
____________________________________________________________________________________________________
convolution2d_10 (Convolution2D) (None, 4, 4, 1024)    9438208     convolution2d_9[0][0]            
____________________________________________________________________________________________________
convolution2d_11 (Convolution2D) (None, 4, 4, 1024)    9438208     convolution2d_10[0][0]           
____________________________________________________________________________________________________
convolution2d_12 (Convolution2D) (None, 4, 4, 1024)    9438208     convolution2d_11[0][0]           
____________________________________________________________________________________________________
convolution2d_13 (Convolution2D) (None, 4, 4, 1024)    9438208     convolution2d_12[0][0]           
____________________________________________________________________________________________________
convolution2d_14 (Convolution2D) (None, 4, 4, 1024)    9438208     convolution2d_13[0][0]           
____________________________________________________________________________________________________
convolution2d_15 (Convolution2D) (None, 4, 4, 1024)    9438208     convolution2d_14[0][0]           
____________________________________________________________________________________________________
convolution2d_16 (Convolution2D) (None, 4, 4, 1024)    9438208     convolution2d_15[0][0]           
____________________________________________________________________________________________________
convolution2d_17 (Convolution2D) (None, 4, 4, 1024)    9438208     convolution2d_16[0][0]           
____________________________________________________________________________________________________
convolution2d_18 (Convolution2D) (None, 4, 4, 1024)    9438208     convolution2d_17[0][0]           
____________________________________________________________________________________________________
convolution2d_19 (Convolution2D) (None, 4, 4, 1024)    9438208     convolution2d_18[0][0]           
____________________________________________________________________________________________________
convolution2d_20 (Convolution2D) (None, 4, 4, 1024)    9438208     convolution2d_19[0][0]           
____________________________________________________________________________________________________
convolution2d_21 (Convolution2D) (None, 4, 4, 1024)    9438208     convolution2d_20[0][0]           
____________________________________________________________________________________________________
convolution2d_22 (Convolution2D) (None, 4, 4, 1024)    9438208     convolution2d_21[0][0]           
____________________________________________________________________________________________________
convolution2d_23 (Convolution2D) (None, 4, 4, 1024)    9438208     convolution2d_22[0][0]           
____________________________________________________________________________________________________
convolution2d_24 (Convolution2D) (None, 4, 4, 1024)    9438208     convolution2d_23[0][0]           
____________________________________________________________________________________________________
maxpooling2d_3 (MaxPooling2D)    (None, 2, 2, 1024)    0           convolution2d_24[0][0]           
____________________________________________________________________________________________________
convolution2d_25 (Convolution2D) (None, 2, 2, 256)     2359552     maxpooling2d_3[0][0]             
____________________________________________________________________________________________________
convolution2d_26 (Convolution2D) (None, 2, 2, 32)      73760       convolution2d_25[0][0]           
____________________________________________________________________________________________________
maxpooling2d_4 (MaxPooling2D)    (None, 1, 1, 32)      0           convolution2d_26[0][0]           
____________________________________________________________________________________________________
flatten_1 (Flatten)              (None, 32)            0           maxpooling2d_4[0][0]             
____________________________________________________________________________________________________
dense_1 (Dense)                  (None, 4)             132         flatten_1[0][0]                  
____________________________________________________________________________________________________
dense_2 (Dense)                  (None, 1)             5           dense_1[0][0]                    
====================================================================================================
Total params: 206538153
____________________________________________________________________________________________________
None
Thu Oct  6 09:05:42 2016       
+------------------------------------------------------+                       
| NVIDIA-SMI 352.63     Driver Version: 352.63         |                       
…
